…
        "colab": {
          "base_uri": "https://localhost:8080/"
        },
        "id": "a8xIUPhcb3W7",
        "outputId": "f2ebc5b9-f711-450a-8012-11ef1ea9b2c4"
      },
      "source": [
        "optimizer = torch.optim.Adam(params=model.parameters(), lr=1e-4)\n",
        "device = torch.device('cuda' if torch.cuda.is_available() else 'cpu')\n",
        "model.to(device)\n"
      ],
      "execution_count": 19,
      "outputs": [
        {
          "output_type": "execute_result",
          "data": {
            "text/plain": [
              "T5ForConditionalGeneration(\n",
              "  (shared): Embedding(32128, 512)\n",
              "  (encoder): T5Stack(\n",
              "    (embed_tokens): Embedding(32128, 512)\n",
              "    (block): ModuleList(\n",
              "      (0): T5Block(\n",
              "        (layer): ModuleList(\n",
              "          (0): T5LayerSelfAttention(\n",
              "            (SelfAttention): T5Attention(\n",
              "              (q): Linear(in_features=512, out_features=512, bias=False)\n",
              "              (k): Linear(in_features=512, out_features=512, bias=False)\n",
              "              (v): Linear(in_features=512, out_features=512, bias=False)\n",
              "              (o): Linear(in_features=512, out_features=512, bias=False)\n",
              "              (relative_attention_bias): Embedding(32, 8)\n",
              "            )\n",
              "            (layer_norm): T5LayerNorm()\n",
              "            (dropout): Dropout(p=0.1, inplace=False)\n",
              "          )\n",
              "          (1): T5LayerFF(\n",
              "            (DenseReluDense): T5DenseReluDense(\n",
              "              (wi): Linear(in_features=512, out_features=2048, bias=False)\n",
              "              (wo): Linear(in_features=2048, out_features=512, bias=False)\n",
              "              (dropout): Dropout(p=0.1, inplace=False)\n",
              "            )\n",
              "            (layer_norm): T5LayerNorm()\n",
              "            (dropout): Dropout(p=0.1, inplace=False)\n",
              "          )\n",
              "        )\n",
              "      )\n",
              "      (1): T5Block(\n",
              "        (layer): ModuleList(\n",
              "          (0): T5LayerSelfAttention(\n",
              "            (SelfAttention): T5Attention(\n",
              "              (q): Linear(in_features=512, out_features=512, bias=False)\n",
              "              (k): Linear(in_features=512, out_features=512, bias=False)\n",
              "              (v): Linear(in_features=512, out_features=512, bias=False)\n",
              "              (o): Linear(in_features=512, out_features=512, bias=False)\n",
              "            )\n",
              "            (layer_norm): T5LayerNorm()\n",
              "            (dropout): Dropout(p=0.1, inplace=False)\n",
              "          )\n",
              "          (1): T5LayerFF(\n",
              "            (DenseReluDense): T5DenseReluDense(\n",
              "              (wi): Linear(in_features=512, out_features=2048, bias=False)\n",
              "              (wo): Linear(in_features=2048, out_features=512, bias=False)\n",
              "              (dropout): Dropout(p=0.1, inplace=False)\n",
              "            )\n",
              "            (layer_norm): T5LayerNorm()\n",
              "            (dropout): Dropout(p=0.1, inplace=False)\n",
              "          )\n",
              "        )\n",
              "      )\n",
              "      (2): T5Block(\n",
              "        (layer): ModuleList(\n",
              "          (0): T5LayerSelfAttention(\n",
              "            (SelfAttention): T5Attention(\n",
              "              (q): Linear(in_features=512, out_features=512, bias=False)\n",
              "              (k): Linear(in_features=512, out_features=512, bias=False)\n",
              "              (v): Linear(in_features=512, out_features=512, bias=False)\n",
              "              (o): Linear(in_features=512, out_features=512, bias=False)\n",
              "            )\n",
              "            (layer_norm): T5LayerNorm()\n",
              "            (dropout): Dropout(p=0.1, inplace=False)\n",
              "          )\n",
              "          (1): T5LayerFF(\n",
              "            (DenseReluDense): T5DenseReluDense(\n",
              "              (wi): Linear(in_features=512, out_features=2048, bias=False)\n",
              "              (wo): Linear(in_features=2048, out_features=512, bias=False)\n",
              "              (dropout): Dropout(p=0.1, inplace=False)\n",
              "            )\n",
              "            (layer_norm): T5LayerNorm()\n",
              "            (dropout): Dropout(p=0.1, inplace=False)\n",
              "          )\n",
              "        )\n",
              "      )\n",
              "      (3): T5Block(\n",
              "        (layer): ModuleList(\n",
              "          (0): T5LayerSelfAttention(\n",
              "            (SelfAttention): T5Attention(\n",
              "              (q): Linear(in_features=512, out_features=512, bias=False)\n",
              "              (k): Linear(in_features=512, out_features=512, bias=False)\n",
              "              (v): Linear(in_features=512, out_features=512, bias=False)\n",
              "              (o): Linear(in_features=512, out_features=512, bias=False)\n",
              "            )\n",
              "            (layer_norm): T5LayerNorm()\n",
              "            (dropout): Dropout(p=0.1, inplace=False)\n",
              "          )\n",
              "          (1): T5LayerFF(\n",
              "            (DenseReluDense): T5DenseReluDense(\n",
              "              (wi): Linear(in_features=512, out_features=2048, bias=False)\n",
              "              (wo): Linear(in_features=2048, out_features=512, bias=False)\n",
              "              (dropout): Dropout(p=0.1, inplace=False)\n",
              "            )\n",
              "            (layer_norm): T5LayerNorm()\n",
              "            (dropout): Dropout(p=0.1, inplace=False)\n",
              "          )\n",
              "        )\n",
              "      )\n",
              "      (4): T5Block(\n",
              "        (layer): ModuleList(\n",
              "          (0): T5LayerSelfAttention(\n",
              "            (SelfAttention): T5Attention(\n",
              "              (q): Linear(in_features=512, out_features=512, bias=False)\n",
              "              (k): Linear(in_features=512, out_features=512, bias=False)\n",
              "              (v): Linear(in_features=512, out_features=512, bias=False)\n",
              "              (o): Linear(in_features=512, out_features=512, bias=False)\n",
              "            )\n",
              "            (layer_norm): T5LayerNorm()\n",
              "            (dropout): Dropout(p=0.1, inplace=False)\n",
              "          )\n",
              "          (1): T5LayerFF(\n",
              "            (DenseReluDense): T5DenseReluDense(\n",
              "              (wi): Linear(in_features=512, out_features=2048, bias=False)\n",
              "              (wo): Linear(in_features=2048, out_features=512, bias=False)\n",
              "              (dropout): Dropout(p=0.1, inplace=False)\n",
              "            )\n",
              "            (layer_norm): T5LayerNorm()\n",
              "            (dropout): Dropout(p=0.1, inplace=False)\n",
              "          )\n",
              "        )\n",
              "      )\n",
              "      (5): T5Block(\n",
              "        (layer): ModuleList(\n",
              "          (0): T5LayerSelfAttention(\n",
              "            (SelfAttention): T5Attention(\n",
              "              (q): Linear(in_features=512, out_features=512, bias=False)\n",
              "              (k): Linear(in_features=512, out_features=512, bias=False)\n",
              "              (v): Linear(in_features=512, out_features=512, bias=False)\n",
              "              (o): Linear(in_features=512, out_features=512, bias=False)\n",
              "            )\n",
              "            (layer_norm): T5LayerNorm()\n",
              "            (dropout): Dropout(p=0.1, inplace=False)\n",
              "          )\n",
              "          (1): T5LayerFF(\n",
              "            (DenseReluDense): T5DenseReluDense(\n",
              "              (wi): Linear(in_features=512, out_features=2048, bias=False)\n",
              "              (wo): Linear(in_features=2048, out_features=512, bias=False)\n",
              "              (dropout): Dropout(p=0.1, inplace=False)\n",
              "            )\n",
              "            (layer_norm): T5LayerNorm()\n",
              "            (dropout): Dropout(p=0.1, inplace=False)\n",
              "          )\n",
              "        )\n",
              "      )\n",
              "    )\n",
              "    (final_layer_norm): T5LayerNorm()\n",
              "    (dropout): Dropout(p=0.1, inplace=False)\n",
              "  )\n",
              "  (decoder): T5Stack(\n",
              "    (embed_tokens): Embedding(32128, 512)\n",
              "    (block): ModuleList(\n",
              "      (0): T5Block(\n",
              "        (layer): ModuleList(\n",
              "          (0): T5LayerSelfAttention(\n",
              "            (SelfAttention): T5Attention(\n",
              "              (q): Linear(in_features=512, out_features=512, bias=False)\n",
              "              (k): Linear(in_features=512, out_features=512, bias=False)\n",
              "              (v): Linear(in_features=512, out_features=512, bias=False)\n",
              "              (o): Linear(in_features=512, out_features=512, bias=False)\n",
              "              (relative_attention_bias): Embedding(32, 8)\n",
              "            )\n",
              "            (layer_norm): T5LayerNorm()\n",
              "            (dropout): Dropout(p=0.1, inplace=False)\n",
              "          )\n",
              "          (1): T5LayerCrossAttention(\n",
              "            (EncDecAttention): T5Attention(\n",
              "              (q): Linear(in_features=512, out_features=512, bias=False)\n",
              "              (k): Linear(in_features=512, out_features=512, bias=False)\n",
              "              (v): Linear(in_features=512, out_features=512, bias=False)\n",
              "              (o): Linear(in_features=512, out_features=512, bias=False)\n",
              "            )\n",
              "            (layer_norm): T5LayerNorm()\n",
              "            (dropout): Dropout(p=0.1, inplace=False)\n",
              "          )\n",
              "          (2): T5LayerFF(\n",
              "            (DenseReluDense): T5DenseReluDense(\n",
              "              (wi): Linear(in_features=512, out_features=2048, bias=False)\n",
              "              (wo): Linear(in_features=2048, out_features=512, bias=False)\n",
              "              (dropout): Dropout(p=0.1, inplace=False)\n",
              "            )\n",
              "            (layer_norm): T5LayerNorm()\n",
              "            (dropout): Dropout(p=0.1, inplace=False)\n",
              "          )\n",
              "        )\n",
              "      )\n",
              "      (1): T5Block(\n",
              "        (layer): ModuleList(\n",
              "          (0): T5LayerSelfAttention(\n",
              "            (SelfAttention): T5Attention(\n",
              "              (q): Linear(in_features=512, out_features=512, bias=False)\n",
              "              (k): Linear(in_features=512, out_features=512, bias=False)\n",
              "              (v): Linear(in_features=512, out_features=512, bias=False)\n",
              "              (o): Linear(in_features=512, out_features=512, bias=False)\n",
              "            )\n",
              "            (layer_norm): T5LayerNorm()\n",
              "            (dropout): Dropout(p=0.1, inplace=False)\n",
              "          )\n",
              "          (1): T5LayerCrossAttention(\n",
              "            (EncDecAttention): T5Attention(\n",
              "              (q): Linear(in_features=512, out_features=512, bias=False)\n",
              "              (k): Linear(in_features=512, out_features=512, bias=False)\n",
              "              (v): Linear(in_features=512, out_features=512, bias=False)\n",
              "              (o): Linear(in_features=512, out_features=512, bias=False)\n",
              "            )\n",
              "            (layer_norm): T5LayerNorm()\n",
              "            (dropout): Dropout(p=0.1, inplace=False)\n",
              "          )\n",
              "          (2): T5LayerFF(\n",
              "            (DenseReluDense): T5DenseReluDense(\n",
              "              (wi): Linear(in_features=512, out_features=2048, bias=False)\n",
              "              (wo): Linear(in_features=2048, out_features=512, bias=False)\n",
              "              (dropout): Dropout(p=0.1, inplace=False)\n",
              "            )\n",
              "            (layer_norm): T5LayerNorm()\n",
              "            (dropout): Dropout(p=0.1, inplace=False)\n",
              "          )\n",
              "        )\n",
              "      )\n",
              "      (2): T5Block(\n",
              "        (layer): ModuleList(\n",
              "          (0): T5LayerSelfAttention(\n",
              "            (SelfAttention): T5Attention(\n",
              "              (q): Linear(in_features=512, out_features=512, bias=False)\n",
              "              (k): Linear(in_features=512, out_features=512, bias=False)\n",
              "              (v): Linear(in_features=512, out_features=512, bias=False)\n",
              "              (o): Linear(in_features=512, out_features=512, bias=False)\n",
              "            )\n",
              "            (layer_norm): T5LayerNorm()\n",
              "            (dropout): Dropout(p=0.1, inplace=False)\n",
              "          )\n",
              "          (1): T5LayerCrossAttention(\n",
              "            (EncDecAttention): T5Attention(\n",
              "              (q): Linear(in_features=512, out_features=512, bias=False)\n",
              "              (k): Linear(in_features=512, out_features=512, bias=False)\n",
              "              (v): Linear(in_features=512, out_features=512, bias=False)\n",
              "              (o): Linear(in_features=512, out_features=512, bias=False)\n",
              "            )\n",
              "            (layer_norm): T5LayerNorm()\n",
              "            (dropout): Dropout(p=0.1, inplace=False)\n",
              "          )\n",
              "          (2): T5LayerFF(\n",
              "            (DenseReluDense): T5DenseReluDense(\n",
              "              (wi): Linear(in_features=512, out_features=2048, bias=False)\n",
              "              (wo): Linear(in_features=2048, out_features=512, bias=False)\n",
              "              (dropout): Dropout(p=0.1, inplace=False)\n",
              "            )\n",
              "            (layer_norm): T5LayerNorm()\n",
              "            (dropout): Dropout(p=0.1, inplace=False)\n",
              "          )\n",
              "        )\n",
              "      )\n",
              "      (3): T5Block(\n",
              "        (layer): ModuleList(\n",
              "          (0): T5LayerSelfAttention(\n",
              "            (SelfAttention): T5Attention(\n",
              "              (q): Linear(in_features=512, out_features=512, bias=False)\n",
              "              (k): Linear(in_features=512, out_features=512, bias=False)\n",
              "              (v): Linear(in_features=512, out_features=512, bias=False)\n",
              "              (o): Linear(in_features=512, out_features=512, bias=False)\n",
              "            )\n",
              "            (layer_norm): T5LayerNorm()\n",
              "            (dropout): Dropout(p=0.1, inplace=False)\n",
              "          )\n",
              "          (1): T5LayerCrossAttention(\n",
              "            (EncDecAttention): T5Attention(\n",
              "              (q): Linear(in_features=512, out_features=512, bias=False)\n",
              "              (k): Linear(in_features=512, out_features=512, bias=False)\n",
              "              (v): Linear(in_features=512, out_features=512, bias=False)\n",
              "              (o): Linear(in_features=512, out_features=512, bias=False)\n",
              "            )\n",
              "            (layer_norm): T5LayerNorm()\n",
              "            (dropout): Dropout(p=0.1, inplace=False)\n",
              "          )\n",
              "          (2): T5LayerFF(\n",
              "            (DenseReluDense): T5DenseReluDense(\n",
              "              (wi): Linear(in_features=512, out_features=2048, bias=False)\n",
              "              (wo): Linear(in_features=2048, out_features=512, bias=False)\n",
              "              (dropout): Dropout(p=0.1, inplace=False)\n",
              "            )\n",
              "            (layer_norm): T5LayerNorm()\n",
              "            (dropout): Dropout(p=0.1, inplace=False)\n",
              "          )\n",
              "        )\n",
              "      )\n",
              "      (4): T5Block(\n",
              "        (layer): ModuleList(\n",
              "          (0): T5LayerSelfAttention(\n",
              "            (SelfAttention): T5Attention(\n",
              "              (q): Linear(in_features=512, out_features=512, bias=False)\n",
              "              (k): Linear(in_features=512, out_features=512, bias=False)\n",
              "              (v): Linear(in_features=512, out_features=512, bias=False)\n",
              "              (o): Linear(in_features=512, out_features=512, bias=False)\n",
              "            )\n",
              "            (layer_norm): T5LayerNorm()\n",
              "            (dropout): Dropout(p=0.1, inplace=False)\n",
              "          )\n",
              "          (1): T5LayerCrossAttention(\n",
              "            (EncDecAttention): T5Attention(\n",
              "              (q): Linear(in_features=512, out_features=512, bias=False)\n",
              "              (k): Linear(in_features=512, out_features=512, bias=False)\n",
              "              (v): Linear(in_features=512, out_features=512, bias=False)\n",
              "              (o): Linear(in_features=512, out_features=512, bias=False)\n",
              "            )\n",
              "            (layer_norm): T5LayerNorm()\n",
              "            (dropout): Dropout(p=0.1, inplace=False)\n",
              "          )\n",
              "          (2): T5LayerFF(\n",
              "            (DenseReluDense): T5DenseReluDense(\n",
              "              (wi): Linear(in_features=512, out_features=2048, bias=False)\n",
              "              (wo): Linear(in_features=2048, out_features=512, bias=False)\n",
              "              (dropout): Dropout(p=0.1, inplace=False)\n",
              "            )\n",
              "            (layer_norm): T5LayerNorm()\n",
              "            (dropout): Dropout(p=0.1, inplace=False)\n",
              "          )\n",
              "        )\n",
              "      )\n",
              "      (5): T5Block(\n",
              "        (layer): ModuleList(\n",
              "          (0): T5LayerSelfAttention(\n",
              "            (SelfAttention): T5Attention(\n",
              "              (q): Linear(in_features=512, out_features=512, bias=False)\n",
              "              (k): Linear(in_features=512, out_features=512, bias=False)\n",
              "              (v): Linear(in_features=512, out_features=512, bias=False)\n",
              "              (o): Linear(in_features=512, out_features=512, bias=False)\n",
              "            )\n",
              "            (layer_norm): T5LayerNorm()\n",
              "            (dropout): Dropout(p=0.1, inplace=False)\n",
              "          )\n",
              "          (1): T5LayerCrossAttention(\n",
              "            (EncDecAttention): T5Attention(\n",
              "              (q): Linear(in_features=512, out_features=512, bias=False)\n",
              "              (k): Linear(in_features=512, out_features=512, bias=False)\n",
              "              (v): Linear(in_features=512, out_features=512, bias=False)\n",
              "              (o): Linear(in_features=512, out_features=512, bias=False)\n",
              "            )\n",
              "            (layer_norm): T5LayerNorm()\n",
              "            (dropout): Dropout(p=0.1, inplace=False)\n",
              "          )\n",
              "          (2): T5LayerFF(\n",
              "            (DenseReluDense): T5DenseReluDense(\n",
              "              (wi): Linear(in_features=512, out_features=2048, bias=False)\n",
              "              (wo): Linear(in_features=2048, out_features=512, bias=False)\n",
              "              (dropout): Dropout(p=0.1, inplace=False)\n",
              "            )\n",
              "            (layer_norm): T5LayerNorm()\n",
              "            (dropout): Dropout(p=0.1, inplace=False)\n",
              "          )\n",
              "        )\n",
              "      )\n",
              "    )\n",
              "    (final_layer_norm): T5LayerNorm()\n",
              "    (dropout): Dropout(p=0.1, inplace=False)\n",
              "  )\n",
              "  (lm_head): Linear(in_features=512, out_features=32128, bias=False)\n",
              ")"
            ]
          },
          "metadata": {},
          "execution_count": 19
        }
      ]
    },
    {
      "cell_type": "code",
      "metadata": {
        "id": "y10DQUYRbOk8"
      },
      "source": [
        "def train(data_loader, model, tokenizer, optimizer, device):\n",
        "    model.train()\n",
        "\n",
…
